…
  model.add(layers.Conv2D(128, (3, 3), activation='relu'))
  model.add(layers.MaxPooling2D((2, 2)))
  model.add(layers.Conv2D(128, (3, 3), activation='relu'))
  model.add(layers.MaxPooling2D((2, 2)))
  model.add(layers.Flatten())
  model.add(layers.Dense(512, activation='relu'))
  model.add(layers.Dense(1, activation='sigmoid'))
  model.summary()  # 查看模型摘要

#+END_SRC

#+RESULTS:
#+begin_example
Model: "sequential_1"
_________________________________________________________________
Layer (type)                 Output Shape              Param #   
=================================================================
conv2d_1 (Conv2D)            (None, 148, 148, 32)      896       
_________________________________________________________________
max_pooling2d_1 (MaxPooling2 (None, 74, 74, 32)        0         
_________________________________________________________________
conv2d_2 (Conv2D)            (None, 72, 72, 64)        18496     
_________________________________________________________________
max_pooling2d_2 (MaxPooling2 (None, 36, 36, 64)        0         
_________________________________________________________________
conv2d_3 (Conv2D)            (None, 34, 34, 128)       73856     
_________________________________________________________________
max_pooling2d_3 (MaxPooling2 (None, 17, 17, 128)       0         
_________________________________________________________________
conv2d_4 (Conv2D)            (None, 15, 15, 128)       147584    
_________________________________________________________________
max_pooling2d_4 (MaxPooling2 (None, 7, 7, 128)         0         
_________________________________________________________________
flatten_1 (Flatten)          (None, 6272)              0         
_________________________________________________________________
dense_1 (Dense)              (None, 512)               3211776   
_________________________________________________________________
dense_2 (Dense)              (None, 1)                 513       
=================================================================
Total params: 3,453,121
Trainable params: 3,453,121
Non-trainable params: 0
_________________________________________________________________
#+end_example

在編譯時，以 RMSProp 優化器，由於使用 sigmoid 單元結束神經網路，所以配合使用 binary\under{}crossentropy 二元交叉熵作為損失基準。

#+NAME: 配置 model 以進行訓練
#+BEGIN_SRC python -r -n :results output :exports both 
  from keras import optimizers
…
  plt.savefig("CatsDogsDataAugmentation-acc.png")
  plt.figure()

  plt.clf()
  plt.plot(epochs, loss, 'bo', label='Training loss')
  plt.plot(epochs, val_loss, 'b', label='Validation loss')
  plt.title('Training and validation loss')
  plt.legend()
  plt.plot()
  plt.savefig("CatsDogsDataAugmentation-loss.png")

#+END_SRC

#+RESULTS:
#+begin_example
Model: "sequential_1"
_________________________________________________________________
Layer (type)                 Output Shape              Param #   
=================================================================
conv2d_1 (Conv2D)            (None, 148, 148, 32)      896       
_________________________________________________________________
max_pooling2d_1 (MaxPooling2 (None, 74, 74, 32)        0         
_________________________________________________________________
conv2d_2 (Conv2D)            (None, 72, 72, 64)        18496     
_________________________________________________________________
max_pooling2d_2 (MaxPooling2 (None, 36, 36, 64)        0         
_________________________________________________________________
conv2d_3 (Conv2D)            (None, 34, 34, 128)       73856     
_________________________________________________________________
max_pooling2d_3 (MaxPooling2 (None, 17, 17, 128)       0         
_________________________________________________________________
conv2d_4 (Conv2D)            (None, 15, 15, 128)       147584    
_________________________________________________________________
max_pooling2d_4 (MaxPooling2 (None, 7, 7, 128)         0         
_________________________________________________________________
flatten_1 (Flatten)          (None, 6272)              0         
_________________________________________________________________
dropout_1 (Dropout)          (None, 6272)              0         
_________________________________________________________________
dense_1 (Dense)              (None, 512)               3211776   
_________________________________________________________________
dense_2 (Dense)              (None, 1)                 513       
=================================================================
Total params: 3,453,121
Trainable params: 3,453,121
Non-trainable params: 0
_________________________________________________________________
Found 2000 images belonging to 2 classes.
Found 1000 images belonging to 2 classes.
100/100 [==============================] - 101s 1s/step - loss: 0.3521 - acc: 0.8438 - val_loss: 0.4726 - val_acc: 0.8061
…
- input\under{}shape: qpaqamo 供給神經網路的影像張量 shape。這個參數為 optional，如果不傳，則神經網路能處理任何 shape 的輸入張量。

#+NAME: VGG16 pretrained model架構細節
#+BEGIN_SRC python -r -n :results output :exports both 
  from keras.applications import VGG16

  conv_base = VGG16(weights='imagenet',
                    include_top=False,
                    input_shape=(150, 150, 3))
  conv_base.summary()
#+END_SRC

#+RESULTS: VGG16 pretrained model架構細節
#+begin_example
Model: "vgg16"
_________________________________________________________________
Layer (type)                 Output Shape              Param #   
=================================================================
input_1 (InputLayer)         (None, 150, 150, 3)       0         
_________________________________________________________________
block1_conv1 (Conv2D)        (None, 150, 150, 64)      1792      
_________________________________________________________________
block1_conv2 (Conv2D)        (None, 150, 150, 64)      36928     
_________________________________________________________________
block1_pool (MaxPooling2D)   (None, 75, 75, 64)        0         
_________________________________________________________________
block2_conv1 (Conv2D)        (None, 75, 75, 128)       73856     
_________________________________________________________________
block2_conv2 (Conv2D)        (None, 75, 75, 128)       147584    
_________________________________________________________________
block2_pool (MaxPooling2D)   (None, 37, 37, 128)       0         
_________________________________________________________________
block3_conv1 (Conv2D)        (None, 37, 37, 256)       295168    
_________________________________________________________________
block3_conv2 (Conv2D)        (None, 37, 37, 256)       590080    
_________________________________________________________________
block3_conv3 (Conv2D)        (None, 37, 37, 256)       590080    
_________________________________________________________________
block3_pool (MaxPooling2D)   (None, 18, 18, 256)       0         
_________________________________________________________________
block4_conv1 (Conv2D)        (None, 18, 18, 512)       1180160   
_________________________________________________________________
block4_conv2 (Conv2D)        (None, 18, 18, 512)       2359808   
_________________________________________________________________
block4_conv3 (Conv2D)        (None, 18, 18, 512)       2359808   
_________________________________________________________________
block4_pool (MaxPooling2D)   (None, 9, 9, 512)         0         
_________________________________________________________________
block5_conv1 (Conv2D)        (None, 9, 9, 512)         2359808   
_________________________________________________________________
block5_conv2 (Conv2D)        (None, 9, 9, 512)         2359808   
_________________________________________________________________
block5_conv3 (Conv2D)        (None, 9, 9, 512)         2359808   
_________________________________________________________________
block5_pool (MaxPooling2D)   (None, 4, 4, 512)         0         
=================================================================
Total params: 14,714,688
Trainable params: 14,714,688
Non-trainable params: 0
_________________________________________________________________
#+end_example

由上述輸出觀察，最終特徵圖的 shape 為(4, 4, 512)，這算是神經網路的 top 層特徵，這個預訓練的 model 共有 13 層 Conv2D 層，最後要再接上密集連接分類器。做法有二：


1. 在資料集上執行 convolutional base，將輸出記錄到硬碟上的 Numpy 陣列，然後再輸入到獨立的密集分類層。這種解決方案只需要為每個輪入影像執行一次 convolutional base，而 convolutional base 是處理過程中成本最高的部份，所以這種做法速度快成本低。但也因如此，這種做法不允許使用資料擴增法。
…
  print('accuracy=',scores[1])
  # 進行預測
  prediction=model.predict_classes(x_Test)
  # 輸出confuse mqtrix
  import pandas as pd
  pd.crosstab(y_test_label,prediction,
              rownames=['label'],colnames=['predict'])
  # 儲存訓練好的模式
  model.save('Keras_MNist_model-3.h5') 
  del model  # deletes the existing model
#+END_SRC

#+RESULTS:
#+begin_example
Model: "sequential_1"
_________________________________________________________________
Layer (type)                 Output Shape              Param #   
=================================================================
dense_1 (Dense)              (None, 1000)              785000    
_________________________________________________________________
dropout_1 (Dropout)          (None, 1000)              0         
_________________________________________________________________
dense_2 (Dense)              (None, 1000)              1001000   
_________________________________________________________________
dropout_2 (Dropout)          (None, 1000)              0         
_________________________________________________________________
dense_3 (Dense)              (None, 10)                10010     
=================================================================
Total params: 1,796,010
Trainable params: 1,796,010
Non-trainable params: 0
_________________________________________________________________
None
Train on 48000 samples, validate on 12000 samples
Epoch 1/10
 - 51s - loss: 0.3197 - accuracy: 0.9040 - val_loss: 0.1234 - val_accuracy: 0.9613
Epoch 2/10
 - 53s - loss: 0.1753 - accuracy: 0.9463 - val_loss: 0.1277 - val_accuracy: 0.9635
…
  scores = model.evaluate(x_Test4D_normalize, y_TestOneHot)
  print(scores[1])

  ### 5. 進行預測
  prediction = model.predict_classes(x_Test4D_normalize)
  print(prediction[:10])
  plot_images_labels_prediction("CNN_MNist", x_Test, y_Test, prediction, idx=0)
  import pandas as pd
  p = pd.crosstab(y_Test, prediction, rownames=['label'], colnames=['predict'])
  print(p)
#+END_SRC

#+RESULTS:
#+begin_example
Model: "sequential_1"
_________________________________________________________________
Layer (type)                 Output Shape              Param #   
=================================================================
conv2d_1 (Conv2D)            (None, 28, 28, 16)        416       
_________________________________________________________________
max_pooling2d_1 (MaxPooling2 (None, 14, 14, 16)        0         
_________________________________________________________________
conv2d_2 (Conv2D)            (None, 14, 14, 36)        14436     
_________________________________________________________________
max_pooling2d_2 (MaxPooling2 (None, 7, 7, 36)          0         
_________________________________________________________________
dropout_1 (Dropout)          (None, 7, 7, 36)          0         
_________________________________________________________________
flatten_1 (Flatten)          (None, 1764)              0         
_________________________________________________________________
dense_1 (Dense)              (None, 128)               225920    
_________________________________________________________________
dropout_2 (Dropout)          (None, 128)               0         
_________________________________________________________________
dense_2 (Dense)              (None, 10)                1290      
=================================================================
Total params: 242,062
Trainable params: 242,062
Non-trainable params: 0
_________________________________________________________________
None

0.9930999875068665
[7 2 1 0 4 1 4 9 5 9]
predict    0     1     2     3    4    5    6     7    8    9
label                                                        
0        977     0     0     0    0    0    1     1    1    0
…
#+BEGIN_SRC python -r -n :results output :exports both
  import torch
  from torchsummary import summary
  from torchvision.models import vgg11 # vgg16,19 用GPU跑可能要跑2,3週

  model = vgg11(pretrained=False)
  if torch.cuda.is_available():  # 如果可以就使用GPU計算
      model.cuda()
  summary(model, (3, 224, 224))  # RGB三色，224*224
#+END_SRC

#+RESULTS[b6e060b5a4d2e26d0f92842d26b21e84a0000db6]:
#+begin_example
----------------------------------------------------------------
        Layer (type)               Output Shape         Param #
================================================================
            Conv2d-1         [-1, 64, 224, 224]           1,792
              ReLU-2         [-1, 64, 224, 224]               0
         MaxPool2d-3         [-1, 64, 112, 112]               0
            Conv2d-4        [-1, 128, 112, 112]          73,856
              ReLU-5        [-1, 128, 112, 112]               0
         MaxPool2d-6          [-1, 128, 56, 56]               0
            Conv2d-7          [-1, 256, 56, 56]         295,168
              ReLU-8          [-1, 256, 56, 56]               0
            Conv2d-9          [-1, 256, 56, 56]         590,080
             ReLU-10          [-1, 256, 56, 56]               0
        MaxPool2d-11          [-1, 256, 28, 28]               0
           Conv2d-12          [-1, 512, 28, 28]       1,180,160
             ReLU-13          [-1, 512, 28, 28]               0
           Conv2d-14          [-1, 512, 28, 28]       2,359,808
             ReLU-15          [-1, 512, 28, 28]               0
        MaxPool2d-16          [-1, 512, 14, 14]               0
           Conv2d-17          [-1, 512, 14, 14]       2,359,808
             ReLU-18          [-1, 512, 14, 14]               0
           Conv2d-19          [-1, 512, 14, 14]       2,359,808
             ReLU-20          [-1, 512, 14, 14]               0
        MaxPool2d-21            [-1, 512, 7, 7]               0
AdaptiveAvgPool2d-22            [-1, 512, 7, 7]               0
           Linear-23                 [-1, 4096]     102,764,544
             ReLU-24                 [-1, 4096]               0
          Dropout-25                 [-1, 4096]               0
           Linear-26                 [-1, 4096]      16,781,312
             ReLU-27                 [-1, 4096]               0
          Dropout-28                 [-1, 4096]               0
           Linear-29                 [-1, 1000]       4,097,000
================================================================
Total params: 132,863,336
Trainable params: 132,863,336
Non-trainable params: 0
----------------------------------------------------------------
Input size (MB): 0.57
Forward/backward pass size (MB): 125.37
Params size (MB): 506.83
Estimated Total Size (MB): 632.78
----------------------------------------------------------------
#+end_example
…
